…
9)\n    capturable: False\n    differentiable: False\n    eps: 1e-08\n    foreach: None\n    fused: None\n    lr: 0.001\n    maximize: False\n    weight_decay: 0\n)', 'lr_schedule': '<function constant_fn.<locals>.func at 0x000002814E19B700>', 'policy': 'MultiInputPolicy(\n  (actor): Actor(\n    (features_extractor): CombinedExtractor(\n      (extractors): ModuleDict(\n        (achieved_goal): Flatten(start_dim=1, end_dim=-1)\n        (desired_goal): Flatten(start_dim=1, end_dim=-1)\n        (observation): Flatten(start_dim=1, end_dim=-1)\n      )\n    )\n    (latent_pi): Sequential(\n      (0): Linear(in_features=336, out_features=512, bias=True)\n      (1): ReLU()\n      (2): Linear(in_features=512, out_features=512, bias=True)\n      (3): ReLU()\n      (4): Linear(in_features=512, out_features=512, bias=True)\n      (5): ReLU()\n      (6): Linear(in_features=512, out_features=512, bias=True)\n      (7): ReLU()\n    )\n    (mu): Linear(in_features=512, out_features=2, bias=True)\n    (log_std): Linear(in_features=512, out_features=2, bias=True)\n  )\n  (critic): ContinuousCritic(\n    (features_extractor): CombinedExtractor(\n      (extractors): ModuleDict(\n        (achieved_goal): Flatten(start_dim=1, end_dim=-1)\n        (desired_goal): Flatten(start_dim=1, end_dim=-1)\n        (observation): Flatten(start_dim=1, end_dim=-1)\n      )\n    )\n    (qf0): Sequential(\n      (0): Linear(in_features=338, out_features=512, bias=True)\n      (1): ReLU()\n      (2): Linear(in_features=512, out_features=512, bias=True)\n      (3): ReLU()\n      (4): Linear(in_features=512, out_features=512, bias=True)\n      (5): ReLU()\n      (6): Linear(in_features=512, out_features=512, bias=True)\n      (7): ReLU()\n      (8): Linear(in_features=512, out_features=1, bias=True)\n    )\n    (qf1): Sequential(\n      (0): Linear(in_features=338, out_features=512, bias=True)\n      (1): ReLU()\n      (2): Linear(in_features=512, out_features=512, bias=True)\n      (3): ReLU()\n      (4): Linear(in_features=512, out_features=512, bias=True)\n      (5): ReLU()\n      (6): Linear(in_features=512, out_features=512, bias=True)\n      (7): ReLU()\n      (8): Linear(in_features=512, out_features=1, bias=True)\n    )\n  )\n  (critic_target): ContinuousCritic(\n    (features_extractor): CombinedExtractor(\n      (extractors): ModuleDict(\n        (achieved_goal): Flatten(start_dim=1, end_dim=-1)\n        (desired_goal): Flatten(start_dim=1, end_dim=-1)\n        (observation): Flatten(start_dim=1, end_dim=-1)\n      )\n    )\n    (qf0): Sequential(\n      (0): Linear(in_features=338, out_features=512, bias=True)\n      (1): ReLU()\n      (2): Linear(in_features=512, out_features=512, bias=True)\n      (3): ReLU()\n      (4): Linear(in_features=512, out_features=512, bias=True)\n      (5): ReLU()\n      (6): Linear(in_features=512, out_features=512, bias=True)\n      (7): ReLU()\n      (8): Linear(in_features=512, out_features=1, bias=True)\n    )\n    (qf1): Sequential(\n      (0): Linear(in_features=338, out_features=512, bias=True)\n      (1): ReLU()\n      (2): Linear(in_features=512, out_features=512, bias=True)\n      (3): ReLU()\n      (4): Linear(in_features=512, out_features=512, bias=True)\n      (5): ReLU()\n      (6): Linear(in_features=512, out_features=512, bias=True)\n      (7): ReLU()\n      (8): Linear(in_features=512, out_features=1, bias=True)\n    )\n  )\n)', 'actor': 'Actor(\n  (features_extractor): CombinedExtractor(\n    (extractors): ModuleDict(\n      (achieved_goal): Flatten(start_dim=1, end_dim=-1)\n      (desired_goal): Flatten(start_dim=1, end_dim=-1)\n      (observation): Flatten(start_dim=1, end_dim=-1)\n    )\n  )\n  (latent_pi): Sequential(\n    (0): Linear(in_features=336, out_features=512, bias=True)\n    (1): ReLU()\n    (2): Linear(in_features=512, out_features=512, bias=True)\n    (3): ReLU()\n    (4): Linear(in_features=512, out_features=512, bias=True)\n    (5): ReLU()\n    (6): Linear(in_features=512, out_features=512, bias=True)\n    (7): ReLU()\n  )\n  (mu): Linear(in_features=512, out_features=2, bias=True)\n  (log_std): Linear(in_features=512, out_features=2, bias=True)\n)', 'critic': 'ContinuousCritic(\n  (features_extractor): CombinedExtractor(\n    (extractors): ModuleDict(\n      (achieved_goal): Flatten(start_dim=1, end_dim=-1)\n      (desired_goal): Flatten(start_dim=1, end_dim=-1)\n      (observation): Flatten(start_dim=1, end_dim=-1)\n    )\n  )\n  (qf0): Sequential(\n    (0): Linear(in_features=338, out_features=512, bias=True)\n    (1): ReLU()\n    (2): Linear(in_features=512, out_features=512, bias=True)\n    (3): ReLU()\n    (4): Linear(in_features=512, out_features=512, bias=True)\n    (5): ReLU()\n    (6): Linear(in_features=512, out_features=512, bias=True)\n    (7): ReLU()\n    (8): Linear(in_features=512, out_features=1, bias=True)\n  )\n  (qf1): Sequential(\n    (0): Linear(in_features=338, out_features=512, bias=True)\n    (1): ReLU()\n    (2): Linear(in_features=512, out_features=512, bias=True)\n    (3): ReLU()\n    (4): Linear(in_features=512, out_features=512, bias=True)\n    (5): ReLU()\n    (6): Linear(in_features=512, out_features=512, bias=True)\n    (7): ReLU()\n    (8): Linear(in_features=512, out_features=1, bias=True)\n  )\n)', 'critic_target': 'ContinuousCritic(\n  (features_extractor): CombinedExtractor(\n    (extractors): ModuleDict(\n      (achieved_goal): Flatten(start_dim=1, end_dim=-1)\n      (desired_goal): Flatten(start_dim=1, end_dim=-1)\n      (observation): Flatten(start_dim=1, end_dim=-1)\n    )\n  )\n  (qf0): Sequential(\n    (0): Linear(in_features=338, out_features=512, bias=True)\n    (1): ReLU()\n    (2): Linear(in_features=512, out_features=512, bias=True)\n    (3): ReLU()\n    (4): Linear(in_features=512, out_features=512, bias=True)\n    (5): ReLU()\n    (6): Linear(in_features=512, out_features=512, bias=True)\n    (7): ReLU()\n    (8): Linear(in_features=512, out_features=1, bias=True)\n  )\n  (qf1): Sequential(\n    (0): Linear(in_features=338, out_features=512, bias=True)\n    (1): ReLU()\n    (2): Linear(in_features=512, out_features=512, bias=True)\n    (3): ReLU()\n    (4): Linear(in_features=512, out_features=512, bias=True)\n    (5): ReLU()\n    (6): Linear(in_features=512, out_features=512, bias=True)\n    (7): ReLU()\n    (8): Linear(in_features=512, out_features=1, bias=True)\n  )\n)', 'batch_norm_stats': '[]', 'batch_norm_stats_target': '[]', '_logger': '<stable_baselines3.common.logger.Logger object at 0x00000281DFC6D700>'}
